CNN-PSF-Detector-PyTorch/CNN-PSF-Detector/conv_net_model.ckpt (torch, 796585 bytes, 19 tensors)

layer_in.0.weight f4 [32, 1, 3, 3]
000000 b4 e2 6c 3d a3 1f 04 3e f6 58 d3 3d c2 85 5f 3e
       0.05783339 0.12902693 0.10319702 0.21828368
000010 25 f3 7e 3d 4e ed 94 3e f8 b9 25 3e 85 bd 46 3e
       0.0622436 0.290873 0.16184223 0.19408233
000020 d6 6a 6f 3e 8d 3c 4c be c3 f7 5f bd 15 33 ac bc
       0.23380598 -0.19944973 -0.054679643 -0.021020452
000030 ba fa a8 be 40 8e 2d bd f1 72 74 bd c0 e7 4d bc
       -0.3300379 -0.04237199 -0.05967993 -0.012567461
000040 bb 14 54 be 5e 96 71 3e 9c a7 d4 bd 10 b8 74 3d
       -0.20711033 0.23592517 -0.103835315 0.05974585
000050 3f bf c2 bd 26 98 1f 3e 63 66 e8 bd b4 60 a2 3e
       -0.095091335 0.15585384 -0.11347654 0.31714404
000060 4a 6d c3 bb c4 47 01 3e 92 8f 39 3e da 9b 8f 3d
       -0.005963956 0.12625033 0.18121174 0.07012148
000070 b8 48 68 be 39 72 8d 3e fe 99 21 3e b1 2f de 3d
       -0.2268399 0.27626207 0.157814 0.1084894
000080 c9 27 91 be 0b 3b 37 3d 7d 37 32 3e 95 4a be 3d
       -0.28350666 0.044734042 0.1740398 0.09291569
000090 eb a7 2e 3d 2e 8b 80 3d 61 e7 16 3c 65 3a 88 be
       0.042640608 0.062765464 0.0092104385 -0.26607051
0000a0 b7 17 65 3d 03 6e 29 3e 81 a4 51 be 3e ef 3f be
       0.05593082 0.16545872 -0.2047291 -0.18743607
0000b0 5b 60 93 3e e5 b1 99 3d d0 7d 70 be 86 fd 24 be
       0.2878445 0.07504634 -0.23485494 -0.16112337
0000c0 44 c0 b5 3d 1b 0e 52 be 60 e9 44 be 6f a4 2a bd
       0.088745624 -0.20513193 -0.1922965 -0.041660722
0000d0 23 70 22 3c 56 1d 0a be 56 40 6f be f1 7f 15 be
       0.009914431 -0.13487753 -0.23364386 -0.14599587
0000e0 cf 72 d1 bc cb c4 dc bd 70 1a d1 bc ff 6f 7f be
       -0.02556744 -0.10779723 -0.025525302 -0.24945067
0000f0 b9 5e 60 3e a6 9f 63 3e b9 8a 8e 3e 25 d0 06 bc
       0.21911134 0.2222887 0.27840212 -0.008228336
000100 a2 f5 5f 3e 11 e1 97 3e 33 5b 4f be cd fe 3c 3e
       0.21871045 0.296639 -0.20249633 0.18456574
000110 0c 9f 22 bc da 86 7f 3e 0f eb e8 bd 22 2e 21 bd
       -0.009925615 0.24953786 -0.11372959 -0.039350636
000120 7a d2 59 3e c0 fe 30 be dc 54 aa 3e f0 30 c5 bd
       0.21271697 -0.1728468 0.33267868 -0.09628475
000130 a4 84 1a 3e 7c 1b e9 3d b1 da ac 3d b4 bd 9f 3e
       0.15089661 0.11382195 0.084401496 0.3119942
000140 b0 ab 38 3d e2 8c 8f 3e ed 8d 94 3e f8 8c 96 3d
       0.04508561 0.28037173 0.2901453 0.073511064
000150 30 6e 81 be cb e6 a6 3e e2 cf 94 3e ed 10 4c be
       -0.2527938 0.32597956 0.29064852 -0.19928332
000160 d1 7a 9f 3e d5 8c 26 be eb da 9c 3e 46 10 28 be
       0.3114839 -0.1626466 0.3063577 -0.16412458
000170 c3 94 93 be 3b 49 1c be 5b a4 d0 3d d8 b4 1a 3e
       -0.28824434 -0.1526231 0.10187598 0.15108049
000180 49 b5 ef 3c be db 70 be f6 73 47 be e3 3c 06 3d
       0.029261248 -0.23521325 -0.1947783 0.03277291
000190 62 8a 08 3e 0d 40 1d be dc c0 32 be c7 ec 6a be
       0.13334039 -0.15356465 -0.17456383 -0.22941886
0001a0 b1 e4 9a 3d f8 8a a9 3d e7 0f 9e bd 15 29 a1 3e
       0.07563151 0.08278459 -0.07717877 0.31476656
0001b0 bb 55 8c be 28 12 7e 3e b7 c0 f6 3c 21 23 c6 3d
       -0.27409157 0.24811614 0.03012119 0.09674669
0001c0 76 49 61 3e 8b 8d 41 3d bd 4f 7b be 5e 92 42 3e
       0.2200068 0.047254127 -0.24542136 0.19001147
0001d0 09 b7 9c be c2 02 cf 3d fb c1 f4 bd cf fe a7 bd
       -0.30608395 0.10107948 -0.11951061 -0.08202898
0001e0 05 4e 57 be 0a 70 80 b9 81 9b a3 3e f6 30 58 be
       -0.21025856 -0.00024497538 0.31954578 -0.21112427
0001f0 46 ca 59 3e 27 6c f8 3d f3 1a 61 3e 28 1b ff bb
       0.21268567 0.121300034 0.21982937 -0.0077852197
000200 52 e6 7d 3e 66 31 ab 3d 7d 36 60 3e 11 aa 68 be
       0.24794891 0.083590314 0.21895786 -0.22721125
000210 bc d4 3a be a6 d9 63 be 33 20 83 3e ef d1 1f 3e
       -0.18245214 -0.22250995 0.25610504 0.15607427
000220 5e f8 54 3e cc 31 98 be d0 6c 3e 3e 26 f3 be 3d
       0.2079787 -0.29725492 0.18596196 0.09323721
000230 bc 17 93 be 5a 87 3c 3e 46 b6 a4 be bf 6b a4 be
       -0.28729045 0.18411008 -0.32170314 -0.32113454
000240 75 dc f7 bd ec 69 6a 3e d4 6a c5 bd 2c c4 15 3e
       -0.12102596 0.22891968 -0.096395165 0.14625615
000250 3d 98 b3 3d 4e 4d 54 3d c2 e7 1a 3e 76 a1 83 bc
       0.087692715 0.051831536 0.15127471 -0.016068202
000260 b3 ba 36 3e c3 8e 89 be c0 27 4b be 58 72 84 3e
       0.17844658 -0.2686673 -0.19839382 0.25868487
000270 fa 98 7c bd 38 17 fa 3c 3b 20 d9 3c d6 6b 15 be
       -0.061669327 0.03052865 0.026504626 -0.14591917
000280 d2 56 a2 be f8 d9 97 be d6 22 7f 3e 52 97 36 be
       -0.31706864 -0.29658484 0.24915633 -0.17831162
000290 66 82 15 3e a8 4d 95 3e c3 30 d9 3d 2c 08 96 be
       0.14600524 0.2916081 0.10605004 -0.2930311
0002a0 a8 c6 bd 3d 15 80 73 be d6 f8 85 be 03 d9 89 be
       0.09266406 -0.23779328 -0.2616641 -0.2692338
0002b0 8e e3 1e be e6 27 77 3e 3e 04 1a 3e 28 95 5e be
       -0.15516493 0.24136314 0.15040681 -0.21736586
0002c0 a9 71 92 3d b6 7d 65 be 30 fc c6 bc a4 3f 80 be
       0.07150585 -0.22411236 -0.024290174 -0.25048554
0002d0 73 8b 88 3d 53 63 bc 3d d2 12 94 3e 98 54 94 be
       0.06667223 0.09198632 0.2892061 -0.2897079
0002e0 7d d7 53 3d f9 32 9e 3e 08 10 55 3d 9d 2c 9c bd
       0.051719178 0.30898264 0.05201724 -0.07625697
0002f0 45 f8 90 be 76 01 56 3e 15 c7 99 3e e3 c2 30 bc
       -0.28314415 0.20898995 0.300347 -0.010788652
000300 cd 21 8e be f3 e5 87 3e b1 43 5d be de d2 c2 bd
       -0.27760163 0.26542625 -0.21607853 -0.09512876
000310 7e 7a 63 be 02 89 77 be 0b ad db bd b2 4f 96 3e
       -0.22214696 -0.24173358 -0.10726365 0.29357678
000320 2c 71 94 be 94 f6 83 3e 57 00 05 3e 4f c8 8a bd
       -0.28992593 0.25774062 0.12988411 -0.06776487
000330 77 d5 95 bd e8 85 95 3d 47 29 9b be 4e 50 22 3e
       -0.07316106 0.07300931 -0.3030493 0.15850946
000340 39 a4 f8 3d b5 7e 72 3e 8c 9d 7a bc b6 e5 05 be
       0.12140698 0.23681147 -0.015296351 -0.13075909
000350 61 82 25 be cf ff da bc e9 26 44 3e 8f ae 66 3e
       -0.16163017 -0.026733307 0.19155468 0.22527526
000360 f8 50 7d be e2 0d 46 3e ca 1c 33 3e fb 75 6d be
       -0.24737918 0.19341233 0.17491451 -0.23189537
000370 26 8b 31 3e 20 34 a6 be 60 67 0b 3c 04 ec a9 3d
       0.17338237 -0.32461643 0.008508533 0.082969695
000380 a0 07 01 be 7e 12 78 be a0 87 84 3d a0 6b 91 bd
       -0.12600565 -0.24225804 0.06471181 -0.07100606
000390 38 2c 40 be 99 66 8b 3e 20 41 02 3e fc 17 8d 3d
       -0.18766868 0.27226713 0.12720156 0.0688934
0003a0 60 f6 79 bd d3 64 4c be 41 63 e3 bd 0e 32 be 3c
       -0.061025977 -0.19960336 -0.111029156 0.023217227
0003b0 7d fe 02 3d 93 9d 1a be 57 b5 6f be 6a f0 38 be
       0.03198098 -0.15099172 -0.2340902 -0.1806046
0003c0 f8 bb 42 3e cd 49 4b bd 25 aa 8f 3e 06 54 07 be
       0.19017017 -0.04963093 0.28059497 -0.13215646
0003d0 ab 68 7c be 28 b5 21 3c 9e 18 fe 3d 78 71 1c 3e
       -0.24649303 0.009869851 0.12407039 0.1527766
0003e0 2e 86 34 be 77 c2 43 be a0 a0 4a be 10 1c 89 be
       -0.1762931 -0.19117151 -0.19787836 -0.26779222
0003f0 03 7e 86 be dc db a1 3d ab 12 64 be fa eb 43 3e
       -0.26268014 0.07903263 -0.22272746 0.19132987

layer_in.0.bias f4 [32]
000000 01 84 8c 3c 59 55 98 3e b0 fa 2e bd c3 02 9c be
       0.017152788 0.29752615 -0.042719543 -0.30470857
000010 32 9e 68 bd eb 48 ce bc cf 69 1e be ad de 26 3d
       -0.05679149 -0.025181254 -0.1547005 0.040739704
000020 0c 4c e6 bd 05 e3 a0 be 34 0a 11 be 27 b8 91 bd
       -0.112449735 -0.31423202 -0.14164048 -0.071152024
000030 fb 43 bd bc c1 13 2d be 0c 41 80 bd 19 4a b7 3d
       -0.023103705 -0.16902067 -0.06262407 0.0894968
000040 c5 22 21 be 29 05 75 3e 26 4c 53 be 37 32 00 be
       -0.1573592 0.2392775 -0.20634517 -0.12519155
000050 8c 93 24 be 33 29 5f 3e e7 3b 82 bd 0b fd 99 be
       -0.1607191 0.2179306 -0.06359082 -0.3007587
000060 69 ea d9 bd 16 fc 5e be a4 6b f6 3d 72 c0 d2 3d
       -0.10640413 -0.2177585 0.120322496 0.10290612
000070 28 a6 75 be 98 d9 9c 3e 1e 6f 46 be 84 6c 79 be
       -0.23989165 0.3063476 -0.19378325 -0.24357802

resnet_block1.0.weight f4 [32, 32, 1, 1]
000000 f2 e2 66 bd 68 b4 1d be ff fe 18 be b0 ba 78 3c
       -0.056368776 -0.15400851 -0.14941023 0.0151812285
000010 b4 0c 83 3d 5e ab 05 be 00 82 b2 ba 08 93 3a 3d
       0.06398907 -0.13053653 -0.0013619065 0.045550376
000020 a0 d6 69 3d 33 06 a4 bd 48 11 d2 bd 00 74 01 3b
       0.057089448 -0.08008995 -0.102572024 0.001975298
000030 e0 34 f7 bd a0 4b 59 3c 66 08 bd bd cc ee 06 be
       -0.12070632 0.013262659 -0.092301175 -0.13177031
000040 a0 17 ed 3b 2e 32 2f be 06 92 fb bd 0f 3d c7 bd
       0.0072354823 -0.17108986 -0.12283711 -0.09728443
000050 bf 6b 15 3e c8 6c 80 bc 8a 4c ef 3d 7d af 27 3e
       0.14591883 -0.015676871 0.116845205 0.16375537
000060 24 2c 37 bd 9c bf 72 3d b5 91 8d bd 2b ac 21 be
       -0.04471983 0.059264764 -0.06912557 -0.15788333
000070 8a eb b8 bd a0 9e a4 bb 9c e7 10 bd 70 80 02 bd
       -0.090293005 -0.0050237924 -0.03537713 -0.03186077
000080 47 9b 2a be 2b a0 17 3d 45 72 df 3d 36 a6 df 3d
       -0.16660796 0.037017982 0.10910467 0.10920374
000090 f9 ae 0a 3e 10 0a 75 3c fd da 07 3e b4 21 04 3e
       0.1354331 0.014956012 0.13267131 0.12903482
0000a0 0e 36 60 3d e6 24 2c be 13 04 c1 3d c5 7d 11 3d
       0.05473905 -0.1681095 0.09424605 0.035520334
0000b0 3c 0d 1c 3e 19 d2 21 be ad 19 c5 3d f7 dc a6 3d
       0.15239424 -0.15802802 0.09624038 0.081476144
0000c0 9b 1e fc ba b0 6e 2e 3e f6 d7 48 bd 52 b3 0b bd
       -0.0019235195 0.17034411 -0.04903408 -0.03410656
0000d0 55 4c 2e be dc d6 64 3d 76 bf bf 3a e5 4b 43 3d
       -0.17021306 0.05586897 0.0014629203 0.0476798
0000e0 40 af fa 3c 4c d4 79 3d b6 66 2c 3e 2e cd 98 bd
       0.030601144 0.060993478 0.16836056 -0.0746101
0000f0 08 8b 93 3d 54 aa c1 3c 6a 38 12 3e c5 45 19 be
       0.072042525 0.02364079 0.14279333 -0.14968021
000100 37 91 ad bd 7b 60 fa bd 1b a7 18 be dd e3 f6 bd
       -0.08474963 -0.122254334 -0.14907496 -0.1205518
000110 77 8b 9e 3d 12 f2 00 bd 7f b9 d6 bd c5 aa e9 bc
       0.077414446 -0.031480856 -0.10484599 -0.028523812
000120 16 f6 f7 bd 0f db ec 3d 0f b1 02 3d e4 24 36 bd
       -0.12107484 0.115652196 0.031907137 -0.044468775
000130 75 41 b1 bd 30 2b dc bd 91 36 f8 bd 61 16 0f 3e
       -0.08655063 -0.10750425 -0.12119783 0.1397338
000140 61 8d a2 bd c6 2d c6 3d 07 4b e1 3d 00 99 29 be
       -0.07937122 0.09676699 0.110006385 -0.16562271
000150 26 76 1a 3e 6e 41 99 3b 50 5f 44 3d f4 b2 cf 3a
       0.15084133 0.0046769893 0.04794246 0.0015846179
000160 b8 7f 14 be 2f 76 06 3e 12 19 0d 3e 95 45 00 be
       -0.14501846 0.13131021 0.13779095 -0.12526543
000170 a1 eb 31 be 22 51 16 be eb 4b 13 3e 83 94 43 bd
       -0.17375042 -0.14679387 0.14384429 -0.047749054
000180 e4 94 a1 bc 58 93 4d bc 42 e1 2a be eb 25 08 bd
       -0.019724317 -0.0125473365 -0.16687492 -0.033239286
000190 c2 86 d5 3c 3f f2 4b bd 18 5b c3 3d ba c6 41 3d
       0.026065234 -0.04979157 0.09538859 0.04730866
0001a0 1d e6 c4 3d b3 db c7 39 a9 d4 52 bd 4f 78 45 3d
       0.09614203 0.00038119926 -0.05147234 0.04821044
0001b0 fe 99 15 3e 5c af 05 be e3 a9 8e bc 14 d4 51 bd
       0.14609525 -0.13055176 -0.017414993 -0.051227644
0001c0 79 8e 29 3e c7 c9 97 3c 08 50 c0 3d a6 6a 22 be
       0.16558255 0.018528832 0.09390265 -0.15860996
0001d0 2b 39 66 bd f3 a6 29 3e d7 18 0d 3e 0b 9e d6 3d
       -0.056206863 0.16567592 0.13779007 0.10479363
0001e0 37 82 26 bd 05 c4 0e 3e 00 5e 00 3e 8d 4d 08 3e
       -0.040651526 0.13941963 0.12535858 0.13310833
0001f0 26 56 d1 bd f3 96 16 be 4b 84 b4 bc 02 3d 15 be
       -0.1022151 -0.1470602 -0.022035738 -0.14574054
000200 2d b0 4b 3d 93 44 a3 bd 13 ed d5 bd 69 89 32 be
       0.04972856 -0.07972064 -0.10445609 -0.1743523
000210 c7 08 20 3d f0 e0 d6 bc 82 27 70 bd 3a 4c 04 3d
       0.03907087 -0.026230305 -0.058631428 0.032299258
000220 7b 51 01 be 99 ce 2e 3e 10 c3 88 3d ab 26 b5 bd
       -0.12628739 0.17070998 0.0667783 -0.08845266
000230 aa f1 34 3e ae 0a fa 3b a8 28 5c 3c f2 26 cc bd
       0.17670313 0.0076306676 0.013437428 -0.09968366
000240 9c c1 d8 bd ae 23 96 3d e4 17 02 be 06 dd de bd
       -0.10583803 0.07331024 -0.12704426 -0.108820006
000250 c1 95 3a 3d 69 a4 a0 3d 34 68 91 3d 51 97 0e 3e
       0.045552973 0.07843859 0.07099953 0.1392491
000260 6b 28 20 3e d1 7b 00 3e 81 90 1c 3b 7a 0b 23 be
       0.15640418 0.12547232 0.0023889842 -0.15922347
000270 7c 7d ba bd c0 d7 d9 3d 71 6e 5d bd 2e a4 b6 bd
       -0.091059655 0.10636854 -0.054060403 -0.089180335
000280 aa 8c ab 3c df 67 ad bd ba 7b 29 3d c3 53 1c be
       0.020941097 -0.084670775 0.04137776 -0.15266328
000290 52 48 c0 bc 23 3a 92 bd 99 5f df 3d de 4e b2 bd
       -0.023471985 -0.07139995 0.10906906 -0.08706449
0002a0 c5 a9 03 3c 80 c9 dd bc 47 2a 19 3e 43 92 17 3e
       0.008036082 -0.027073622 0.14957534 0.14801888
0002b0 9f b6 37 bd b6 e3 8c bd 6b cb a1 3d 15 e5 1b 3e
       -0.044851895 -0.0687937 0.07900127 0.15224107
0002c0 e9 cc 4f 3c 3f e3 2a 3e 63 28 f3 3d 00 40 5e 3d
       0.012683132 0.1668825 0.118729375 0.054260254
0002d0 94 b6 24 3e dc ea 0e 3e 60 63 b7 3d 09 d5 6f 3d
       0.16085273 0.13956779 0.08954501 0.058552776
0002e0 1e 31 49 3c 90 c9 20 3e f9 ce e5 bd 07 6b 02 bc
       0.012279777 0.1570189 -0.112211175 -0.007960088
0002f0 8e b9 1d 3e 16 e3 fe 3d ce bf 0c 3d 65 49 7f 3c
       0.15402815 0.12445657 0.034362607 0.015581463
000300 6b d7 cd bd bb 72 61 bd ee 3f 34 be a6 bb f2 bd
       -0.10050853 -0.055041056 -0.17602512 -0.11852197
000310 13 3e e0 3d 3c 55 84 3d 68 11 18 3e ca d7 96 3d
       0.1094934 0.0646157 0.1485039 0.07365377
000320 be 5c 1e 3e 32 1e 89 3b b0 09 d7 bc 45 22 26 be
       0.15465066 0.0041845078 -0.026249737 -0.1622401
000330 65 3e a5 bd aa ef 24 3e 7e ef 24 3d 8b 54 95 3d
       -0.080685414 0.1610705 0.04026746 0.07291516
000340 3c de a7 3d ce 7e da bd 1c e1 33 3e 54 bd 0d be
       0.08196685 -0.10668717 0.17566341 -0.13841754
000350 5a 7d 36 3d 48 b0 aa bd ed f9 b8 3d 8e 36 c4 3d
       0.04455314 -0.08334404 0.090320446 0.09580718
000360 0a f6 30 3e 2e c3 a6 3d c8 2c c1 3c be 12 40 bd
       0.17281356 0.08142696 0.023580924 -0.046892874
000370 3c f8 ba ba d0 23 21 be 35 78 2e 3e cc f2 11 3e
       -0.0014264653 -0.15736318 0.17038043 0.14252776
000380 46 ee 94 3c 0f 5d 4a 37 27 bd ac bc 3e 16 25 3d
       0.018180024 1.2061805e-05 -0.021086289 0.040304415
000390 c2 02 04 3e 06 2b 41 bd c2 1c 6f 3d ab 65 17 3d
       0.12891677 -0.04716017 0.058377035 0.036962193
0003a0 9c 65 85 bd 46 89 84 bc da 30 06 3e a8 23 78 3d
       -0.06513521 -0.016178738 0.13104573 0.06058088
0003b0 a7 ff 0d 3e 01 2c e8 bc 3b 47 e6 3d e9 80 12 3e
       0.13867055 -0.028341295 0.11244055 0.14306988
0003c0 2c 76 24 3e 91 28 a3 bc d7 e0 c2 bd cf f3 c6 3d
       0.16060704 -0.019916805 -0.09515541 0.097144715
0003d0 b2 c0 23 3e fb 35 ed 3d 0a 20 af bc fa ec 03 bd
       0.15991476 0.115825616 -0.021377582 -0.03220842
0003e0 7b 37 d5 bc 1d 64 e7 3d 99 db 26 3e bd 61 1c be
       -0.026027432 0.11298392 0.16294707 -0.15271659
0003f0 a3 4c aa 3d 14 2c e1 bc 03 06 35 bd 75 fa a8 bd
       0.083153985 -0.027486838 -0.044195186 -0.08250896

resnet_block1.0.bias f4 [32]
000000 d6 5d 55 bd 24 b5 c8 ba 3e 7b 6b 3d 3e 0c bc 3d
       -0.052091442 -0.0015312773 0.05749058 0.091820225
000010 eb 51 7c bc 4a f5 8f bd fd 1f e0 ba 80 12 56 bd
       -0.01540039 -0.07029207 -0.0017099377 -0.052263737
000020 cc f0 0a 3e 4d a9 f9 3d ac 14 9a 3d e1 05 90 bd
       0.13568419 0.12190495 0.07523474 -0.07032371
000030 5b 47 a4 bd 83 40 e9 bd 71 4f 0d bc 91 0c d2 ba
       -0.080214225 -0.11389258 -0.008624897 -0.0016025474
000040 d1 f7 74 3b 70 05 cc bd 6f 31 c4 3d 3a 58 52 bd
       0.0037379155 -0.099619746 0.09579741 -0.05135367
000050 89 fe 1b 3e cb 29 85 bd 05 6b cd bc 5d 1a 1c be
       0.15233816 -0.06502112 -0.025075445 -0.15244432
000060 03 0f 00 3e 76 23 2d bd cf 29 b2 bd d8 dc dd 3d
       0.12505727 -0.042270146 -0.086993806 0.10833138
000070 0f da 4a bd 36 92 e6 bd f9 30 02 be f1 1d 11 3d
       -0.049524363 -0.11258356 -0.12713994 0.035428945

resnet_block1.2.weight f4 [32, 32, 5, 5]
000000 d8 f9 c0 bb 6e f3 a4 bc f8 71 1a 3c d1 2e 00 3d
       -0.0058891587 -0.020135608 0.009426586 0.031294648
000010 c9 9d 07 3d a5 b8 96 bc 54 c1 4b bc b2 c8 f3 3c
       0.03310946 -0.018398592 -0.01243623 0.029758785
000020 11 73 04 3d ac cb 45 bc 60 84 cc 3b 4a e2 a6 3c
       0.0323363 -0.012072485 0.0062413663 0.020371575
000030 83 d4 06 bd 38 78 cf 3c ca 17 9d 3c c0 0a 8e bb
       -0.03291751 0.02532588 0.019176383 -0.0043347776
000040 fc 1d 47 3c 3c 0e 5b bc a9 e9 02 3d 00 75 5c 3a
       0.012153145 -0.013370093 0.031961117 0.00084097683
000050 ea 8d b0 bc 86 fa f2 3c d0 69 79 3b b0 06 3c bb
       -0.021552045 0.029660475 0.0038057454 -0.002869051
000060 64 36 3e 3c 45 2d c0 3c 53 c6 f2 3c 25 1f f9 3c
       0.011609647 0.023459086 0.029635584 0.030410359
000070 10 21 a5 bb e5 87 04 3d d6 dc a4 3c 7c 8f cd bc
       -0.0050393417 0.03235616 0.020124834 -0.025092833
000080 10 c2 2c 3c 12 8c 2d 3c 06 40 16 3c 4c 7b 0b 3c
       0.010544315 0.010592477 0.009170538 0.008513283
000090 35 ee 09 3d 92 37 e1 3c 37 37 c9 bc ed ec 45 3c
       0.033674438 0.027492318 -0.024562461 0.012080413
0000a0 39 f4 ae bb 2f 3f 2f 3c a6 b5 f8 3c f0 6c 6e bc
       -0.005339172 0.0106962165 0.030360054 -0.01455234
0000b0 db 9d a4 3c 70 0a 86 3c e0 5b b0 bc 35 eb 9e bc
       0.020094803 0.016362399 -0.021528184 -0.019399265
0000c0 92 ed 2c bc f1 06 20 bc f1 1b 8e bc 76 c1 a1 ba
       -0.010554688 -0.00976728 -0.017347308 -0.0012340981
0000d0 16 af e3 3b 77 15 b4 3c a5 71 86 3c d3 a1 ca 3c
       0.006948362 0.021982891 0.016411612 0.024735367
0000e0 d9 65 af bc 0f 3d 89 3a e8 62 80 3c 1e f1 4e bc
       -0.02141087 0.0010470467 0.015672162 -0.012630729
0000f0 06 78 95 3c f2 43 d2 3c 7f c3 0e 3d 06 ae 09 3d
       0.018245708 0.025667164 0.03485441 0.033613227
000100 6a 74 24 bc fd d4 80 3c 81 66 93 bc 85 8c 0a 3b
       -0.010037521 0.01572656 -0.017993214 0.0021140885
000110 03 23 23 bb 02 4e f9 bb fb 71 e0 3a 71 3c 6e bb
       -0.0024892695 -0.007608176 0.0017123813 -0.0036351944
000120 cc 14 e4 3c 48 ae 03 bc 5b 00 06 3d 8c 3d 38 bb
       0.027841948 -0.008037157 0.032715183 -0.0028112857
000130 30 06 d4 bc 2c 79 c8 3c bb ee 0c bd 68 03 83 bc
       -0.025881857 0.024471842 -0.03440736 -0.015992835
000140 1a d3 fb bc aa 4a b2 3c 6f a0 85 bc 4c 7e b1 bc
       -0.03074031 0.021764118 -0.016311852 -0.021666668
000150 d3 c3 b2 bb e9 a0 87 3c 77 f4 cf 3b f2 7f 0e bd
       -0.005455473 0.01655622 0.006346281 -0.034789987
000160 0b 40 03 bc 7a 12 e7 bb c9 33 be bc 9a e6 16 bc
       -0.0080108745 -0.007051763 -0.023218052 -0.009210253
000170 8a 42 08 bb aa 24 e8 3b 80 f2 fa 3c b2 ee 9c bc
       -0.0020791613 0.007084449 0.030633211 -0.019156788
000180 73 6b 44 3c 03 46 7a bc 53 58 e8 bc 52 3d d3 3c
       0.0119885085 -0.015275481 -0.028362429 0.025786076
000190 a8 d1 cb 3b 70 41 e3 3c ea 00 47 3c b8 58 9e ba
       0.0062200613 0.027741164 0.012146214 -0.0012080884
0001a0 bc 34 04 3d ee ad 83 3c 5c 22 df 3c 29 23 de bc
       0.032276854 0.016074147 0.027238064 -0.027116375
0001b0 48 56 ee 3b 6e c3 3a bc 0f af ae 3c 06 25 09 bd
       0.007273469 -0.011399133 0.021323709 -0.033482574
0001c0 6c 1e 03 bd f2 ea 6d 3c 34 1b eb 3c b7 52 b5 3c
       -0.032011434 0.014521347 0.028699495 0.022134168
0001d0 83 aa 43 ba de 25 83 3b e3 85 2e 3c d2 1b ca bc
       -0.0007464068 0.004002317 0.010652038 -0.024671469
0001e0 8b 36 06 39 36 d9 d4 3c 8d 60 93 bc 56 14 e3 bb
       0.00012799555 0.02598248 -0.017990375 -0.0069299145
0001f0 82 d9 93 3c 17 5b 8a bc a9 26 e9 bb d6 7f d9 bc
       0.018048052 -0.016889138 -0.0071152044 -0.026550215
000200 1b 42 06 bd 6c 57 ce bc ae fd d1 bc 8b 28 4a bc
       -0.032777887 -0.02518817 -0.02563366 -0.012338768
000210 92 08 14 bb b6 8d aa bc d0 fd 88 3b 23 39 6f 3c
       -0.0022588116 -0.020819526 0.0041806474 0.014601025
000220 6a a2 fe 3c c4 1d c8 3c e0 37 54 bc ff c2 f7 3c
       0.031083304 0.024428256 -0.012952775 0.030244349
000230 de df 0a bd 38 84 30 bb be ae 1d bc 18 e3 9f 3c
       -0.033904903 -0.0026934277 -0.009624181 0.019517466
000240 11 03 4c 3c 89 61 ec 3c f0 a1 47 bc 13 f6 75 3c
       0.012451903 0.028855102 -0.012184605 0.015012282
000250 b9 c2 f8 bc 66 19 2a bc 1a a5 82 3b e5 20 92 3b
       -0.030366288 -0.010382032 0.003986967 0.0044594877
000260 14 f9 39 bb fc c4 bb bc 95 2b 06 bd 23 51 0f 3c
       -0.0028377222 -0.022921078 -0.032756407 0.008747372
000270 54 78 80 3a 64 68 f1 bc 9e 8a 76 bc be 29 67 bc
       0.0009801486 -0.029468723 -0.015047697 -0.014109073
000280 a8 97 df bc 3e 3b b6 bb 54 f4 0a 3d a5 09 8e bc
       -0.027293995 -0.0055612614 0.033924416 -0.017338583
000290 46 2e a3 bc 6d d9 c2 3b c6 71 4c 3c 9c 01 e7 3c
       -0.019919526 0.0059463293 0.012478298 0.02819901
0002a0 f2 d0 42 bc 39 48 dc 3c 1b 0d 98 3b dc 25 aa 3c
       -0.011890637 0.026889907 0.004640234 0.020770006
0002b0 fe de e1 3c 13 b5 65 bc e4 4e 3e 3c 89 9a 0d bc
       0.027572151 -0.014020222 0.011615489 -0.008642801
0002c0 79 d5 f2 3c 27 29 ef 3c d4 9a cb 3b a4 c6 9f 3c
       0.029642807 0.029194428 0.0062135253 0.019503899
0002d0 67 27 18 3c b8 e0 aa 3c 3e 08 75 3c 1f ee f6 bc
       0.009286738 0.020859107 0.014955578 -0.030142842
0002e0 e5 b8 39 bc a2 00 6a bc 3f 25 87 3c aa ec 00 3b
       -0.011335586 -0.014282377 0.016497253 0.0019672313
0002f0 65 a0 a2 bc 7c d4 1b bc 29 4c bf 3c f1 0b 05 3d
       -0.019851873 -0.009511109 0.023351746 0.03248209
000300 2f 5f 60 3c 41 b2 a7 bb e9 d1 e1 bc 80 4b 3c 3c
       0.013694569 -0.005117685 -0.027565913 0.01149261
000310 16 b7 b9 bc 93 ba 0d bc 15 78 02 bb 56 ac 3b bc
       -0.02267031 -0.00865044 -0.0019908 -0.011454662
000320 d5 4d 0a 3d 07 0b d7 3c d0 4d 9b bc 95 7d 80 bc
       0.033765633 0.026250375 -0.018958002 -0.015684882
000330 71 6e ae 3b 86 ae f5 3b 48 e3 a9 bc 1b 9c 08 3c
       0.0053232242 0.0074976115 -0.020738259 0.008338
000340 a4 ea 7d bc 12 98 33 3c 0c b3 e1 bb 8e 79 37 3c
       -0.015497837 0.010961549 -0.006887799 0.0111984145
000350 a8 76 f6 3c df 88 a6 ba d7 d5 09 bd 58 23 c5 3b
       0.030085877 -0.0012705586 -0.0336512 0.006016176
000360 25 cc 5a bc 7c 93 d6 3c d7 ac 1c 3c 08 e7 62 bc
       -0.013354336 0.026193373 0.009562693 -0.013849027
000370 0b 77 64 3c 6e 63 d4 3c 61 1d ce 3c 5d 6b fc bc
       0.013944398 0.025926318 0.025160493 -0.030812914
000380 c3 37 9f bc f6 d5 0a 3d 4a c3 06 3c 17 55 ac ba
       -0.019435769 0.033895455 0.0082252715 -0.0013147917
000390 35 8e a9 3c 90 61 0f bc a3 58 fb bc df 48 8c bc
       0.020697692 -0.008751288 -0.030681914 -0.017124591
0003a0 15 e6 c9 bc b8 fb 53 bc aa 03 dd bb 3a c1 73 bb
       -0.024645844 -0.012938432 -0.0067448216 -0.003719403
0003b0 89 67 84 bc 14 de fa bb e7 06 f0 bb af 10 2c 3c
       -0.01616265 -0.0076558683 -0.0073250416 0.010502025
0003c0 f5 6d a5 bc 21 dd 1f 3c 39 44 69 3c 80 e5 c5 bc
       -0.020194033 0.009757311 0.014237457 -0.024157286
0003d0 a6 64 08 bd 0f 43 48 bc 83 56 06 bd c8 e4 fc bc
       -0.03329911 -0.012223019 -0.032797348 -0.03087081
0003e0 b9 f1 67 bc 87 25 52 bc e3 b9 d0 3c 2b e1 80 bb
       -0.014156752 -0.01282633 0.025479263 -0.003933092
0003f0 e3 c7 e6 3c 0c 1f 08 3c 8d ab 06 bd 45 97 09 bd
       0.028171485 0.008308183 -0.032878447 -0.033591527

resnet_block1.2.bias f4 [32]
000000 90 09 94 3c 47 a6 38 3c 66 fc ac bc 7d ec f0 ba
       0.018070966 0.011270112 -0.021116447 -0.0018381026
000010 15 4c e3 bc fe e3 0c bd d3 c8 f5 bc ac 73 f1 bc
       -0.02774624 -0.034397118 -0.030002987 -0.029474102
000020 0a e9 17 3c d3 52 dc 3c 36 f9 aa 3c 15 e9 c5 3c
       0.009271869 0.026894962 0.020870786 0.024158994
000030 c5 75 e4 bc 35 f9 ca bb 4f e8 ef bc 1b e0 1f 3c
       -0.027888188 -0.0061942586 -0.029285578 0.009758021
000040 6e 48 82 3c c4 7f a9 3c dd bb af bb ab e2 c5 bc
       0.015903678 0.020690806 -0.005362971 -0.024155935
000050 40 b7 81 bc e1 1a 8e 3c 5d 4f 9d bc 5c bd 04 bd
       -0.01583445 0.017346801 -0.019202882 -0.03240715
000060 c1 83 f4 3c 6a 4d 40 bb a8 a6 b5 bc 46 dc 03 3d
       0.029847981 -0.0029343017 -0.022174194 0.03219249
000070 4e 7e bc 3c 3b 32 ed 3b de fb 1a 3c ef ac d7 3c
       0.023009446 0.007238654 0.009459464 0.026327578

up_channels.0.weight f4 [64, 32, 3, 3]
000000 2b c8 0a 3b ad 3a 84 bc f2 26 99 3c a3 84 34 bc
       0.0021176438 -0.01614126 0.018695328 -0.011017951
000010 1e 52 6c bb fb d7 49 3c 65 ca 03 bd 7a 16 ff bc
       -0.0036059688 0.01231956 -0.03217544 -0.031138647
000020 4b ad 0d bc de 93 ce 3b f7 36 56 3d cb db 4c bd
       -0.008647273 0.0063042482 0.052298512 -0.0500143
000030 b7 15 c5 bc b3 69 0c bb 60 78 15 3d 26 c6 10 bc
       -0.024058206 -0.0021425306 0.03649175 -0.008836305
000040 7f 8a 41 3d 21 89 13 3d 4d 79 ab bc 2e 20 df bc
       0.04725122 0.03601945 -0.020931864 -0.027237024
000050 df 1a 89 3c cc 9a 2b bd 91 71 d9 bc 48 aa 11 bd
       0.016736446 -0.041895673 -0.02654341 -0.035562783
000060 b5 63 04 3b 70 59 18 bd f0 32 68 bd 97 99 cf 3b
       0.0020201032 -0.03719467 -0.056689203 0.006335448
000070 9f 5d e6 bc 07 c7 41 bd 3b f2 55 bd 36 21 ce bb
       -0.028120814 -0.047308948 -0.052232962 -0.00629058
000080 51 f1 59 3d 27 81 20 bd 9b 97 3c bc 9d fc 98 3c
       0.053208653 -0.03918567 -0.011510755 0.018675143
000090 ae ef 26 bd 0a 23 47 3d d8 6f 34 bd a2 64 3a 3c
       -0.04075592 0.0486174 -0.044051975 0.011376532
0000a0 82 94 26 3d 0a 89 58 bd 73 35 2c bd 7b 62 03 ba
       0.04066897 -0.052865066 -0.04204316 -0.0005011928
0000b0 ac 98 53 bd 81 84 6d bd 1f b2 60 3d cc 0e 2d bc
       -0.05165927 -0.057987694 0.05485737 -0.01056261
0000c0 9e dc a1 bb 39 0f 13 3d 65 e7 7b bc 53 e0 b0 3c
       -0.0049396297 0.03590319 -0.015374993 0.021591341
0000d0 13 35 60 bd f3 f2 ca 3b f7 b2 f6 bc 26 1a 06 bd
       -0.054738116 0.0061935126 -0.030114634 -0.03273978
0000e0 78 33 c4 ba 0d 68 ee bc cf ce 5d 3d 68 8e 6f ba
       -0.0014968952 -0.02910235 0.054152306 -0.00091383466
0000f0 80 f7 9d bc 62 41 07 3d e0 ac 33 bd 0f 03 39 3d
       -0.019283056 0.03302134 -0.04386604 0.045168933
000100 61 79 c2 3c a0 e7 43 bd 9e 68 53 3d b9 93 3a 3d
       0.023739519 -0.047828317 0.051613443 0.045551036
000110 63 03 bb bb af 35 32 3c 18 8a 68 3d 3e 08 91 3c
       -0.005707191 0.010877057 0.05677232 0.017704125
000120 23 16 68 bc 08 e2 6d b9 64 c1 3c 3d e1 da de bc
       -0.014165434 -0.00022686285 0.04608287 -0.027203979
000130 14 02 6c bd 89 e8 2e bd cd 0c b2 3c 6e 85 4b 3c
       -0.05761917 -0.04270223 0.02173462 0.012421949
000140 46 79 64 3d 23 0d 8f bc b6 4e 50 3d 4a 59 d5 bc
       0.055779718 -0.017462319 0.050856315 -0.026043553
000150 db 19 d5 bc 59 87 e6 bc b2 45 00 bd 5e 60 66 3d
       -0.026013305 -0.02814071 -0.031316467 0.056244247
000160 aa cc 0d bd c3 ea 02 3c 3f aa 36 3d 18 ea fc 3c
       -0.03461901 0.007990542 0.044595953 0.030873343
000170 9d 69 ab bc aa 10 6b bd fa 2d 57 3d da 9f 82 3b
       -0.020924384 -0.05738894 0.05253408 0.003986341
000180 f2 09 1e 3d 2f 19 2c 3d 33 d7 85 ba a0 bb 55 3d
       0.038583703 0.042016204 -0.0010211229 0.052180886
000190 1f 80 1a bd bb 49 98 bc 4e 06 0f bd 2b 87 1a bc
       -0.037719842 -0.018589845 -0.034918122 -0.009431641
0001a0 53 da ca 3c 26 32 58 bd 11 d7 69 3d 38 ab 6c bc
       0.024762308 -0.0527822 0.05708987 -0.014445119
0001b0 a1 e6 ae 3b 13 db b1 3c 2b 2b c7 bc 46 9e 26 3d
       0.0053375517 0.021710908 -0.024312576 0.040678285
0001c0 76 b2 2a bd 47 e2 83 3b ef f2 7c 3a 36 d2 f2 bc
       -0.0416741 0.004024777 0.0009649237 -0.029641252
0001d0 ac 48 c7 bc 39 a0 6e 3d fe 51 68 bd 4a 25 f3 3c
       -0.024326645 0.05825827 -0.05671882 0.029680867
0001e0 c4 c5 93 bc e5 5a 20 3c 00 97 5b 3d 9b 64 2e bc
       -0.018038638 0.009787296 0.0536108 -0.010644103
0001f0 c5 41 b5 3a 9b 64 6c 3d 2e 8f 58 3d 38 df 59 3d
       0.0013828805 0.057713132 0.05287092 0.053191394
000200 de 46 61 bd 34 f3 48 3d 78 e2 51 3d c2 e3 bc bc
       -0.054999225 0.04906006 0.051241368 -0.023057822
000210 4c 82 d3 bc 76 c4 ce bc 5d 64 61 bd f8 34 07 bc
       -0.025818966 -0.025240164 -0.055027355 -0.008252375
000220 25 53 3f bd 7f ef 49 bd a4 dd 9a bc e4 a5 b2 3c
       -0.046710152 -0.049300667 -0.018904515 0.021807618
000230 04 77 68 3d 79 42 90 3c 80 76 f2 bc e0 33 70 3d
       0.056754127 0.017609822 -0.02959752 0.05864322
000240 55 cf 0b bb 60 66 e3 bc 91 b4 0f bd 90 71 16 bc
       -0.0021333296 -0.027758777 -0.03508431 -0.009182349
000250 2a fd 01 bd 3f 78 69 bd 3d 68 5a bb 7c 4a 68 bd
       -0.031735577 -0.05699944 -0.003332629 -0.05671166
000260 2e d9 60 3d 77 61 47 3d ec 9e cd 3a 39 09 3a bd
       0.05489462 0.048676934 0.0015687621 -0.04541895
000270 8b 85 71 bc 0b a5 4f bc 7d d9 41 bd 49 44 47 bc
       -0.014741312 -0.012673627 -0.047326554 -0.012162277
000280 c8 01 d1 bc ed df 85 3c 46 dd 23 3d 8f cd 6b 3d
       -0.025513545 0.016342128 0.040005945 0.057569083
000290 6e a2 48 3c a8 b5 57 bc 5c 09 55 3c 1f 9c a4 3c
       0.0122457575 -0.013165869 0.01300272 0.020093976
0002a0 fe f3 5a bd b7 a7 51 3d 86 7a 31 bd 2e cd c6 bc
       -0.053455345 0.051185336 -0.043329738 -0.02426776
0002b0 53 cb 6e 3d 41 33 58 bd 67 33 16 bc cf 15 24 bd
       0.058299374 -0.052783255 -0.009167529 -0.04005986
0002c0 e2 02 47 bd 86 ea 2c 3d c4 f6 1a 3c 6f 9e 98 3c
       -0.048586734 0.042215846 0.009458248 0.018630235
0002d0 4c f1 3d bc 8b 4f 4f 3c 09 40 e5 37 ea 59 a8 3c
       -0.011593174 0.012653242 2.7328746e-05 0.020550687
0002e0 44 ca d4 3b fc d5 7f 3a eb e3 8d bc 79 f0 26 bd
       0.0064938385 0.0009759364 -0.017320594 -0.040756676
0002f0 04 7b a3 3c 55 ee e0 3c bf 53 5e 3b 45 a1 64 3d
       0.01995612 0.027457396 0.0033924428 0.05581786
000300 d6 31 5f 3d 64 cc e5 3b 12 a4 02 3c 0d 12 60 bc
       0.054490887 0.0070128907 0.007973688 -0.013676179
000310 0e aa 84 bc cf 3b 6d 3d ff a0 36 bd ad 7b 64 bb
       -0.01619437 0.057918366 -0.04458713 -0.0034863756
000320 5e 67 d8 3c 35 c5 5b bd e5 67 d1 3c 5c cb 89 bc
       0.026416477 -0.05365487 0.025562236 -0.016820602
000330 b7 b8 4d 3c cc dd 81 3c 6b 19 47 bc eb d3 e5 3c
       0.0125562465 0.015852831 -0.012152056 0.028055152
000340 8c 01 0b bd f1 b8 bd bc f3 aa ef 3c 3e 1e fa bc
       -0.033937022 -0.023159476 0.02925632 -0.030531999
000350 09 75 6c bd bd 85 14 3d 4b b2 15 bc 77 97 2c 3d
       -0.0577288 0.036260355 -0.009136747 0.042136636
000360 2b f5 1c 3d 75 7b 10 3d 41 c0 42 3c af 0c 55 bc
       0.038319748 0.035273988 0.011886657 -0.013003512
000370 6d 87 ab bc 8c 53 b0 3b 94 30 23 bd 36 bd 4a 3d
       -0.0209386 0.0053810533 -0.03984125 0.04949685
000380 6c 77 6f bd 04 e3 64 3d 9f f1 b2 bc b4 4b 5c 3d
       -0.0584635 0.05588056 -0.02184373 0.053783134
000390 85 b0 02 bd 24 54 e9 bc cb 1e e2 3c c5 66 05 3d
       -0.031906623 -0.028482504 0.027602574 0.03256871
0003a0 cd 49 09 3d a5 0b 6b 3a 33 4a f5 3c 2b 32 5f 3d
       0.033517648 0.0008966274 0.029942608 0.054491203
0003b0 90 63 58 bd d3 81 67 bb df fd 42 3d a7 68 6c bc
       -0.052829325 -0.0035325184 0.04760539 -0.014429248
0003c0 94 81 a6 bc b0 88 0d 3c 0f b3 88 3b 7b c0 8a bb
       -0.02032546 0.008638546 0.004171736 -0.0042343712
0003d0 6b 8a 3e 3d 91 8e e1 bc 4d 2c 24 bc 8e d2 0a bc
       0.046518724 -0.027533801 -0.010020328 -0.008473052
0003e0 97 68 d2 38 1c 76 59 bd 31 0f e9 3c ef 83 9b bc
       0.00010033062 -0.053091154 0.028449627 -0.01898381
0003f0 3d f1 3a bd 58 2d 44 bd b6 e6 3a 3d 48 cd 08 bd
       -0.04564022 -0.047894806 0.04563018 -0.033398896

up_channels.0.bias f4 [64]
000000 ca fd e6 3c d5 f8 55 3d af c9 00 3d a3 3d 87 ba
       0.028197188 0.052239258 0.03144234 -0.0010318052
000010 26 3f 96 bc 97 c6 d7 bc 40 fd ca ba ef fd fb 3b
       -0.018340658 -0.026339812 -0.0015486851 0.0076901834
000020 72 ff e4 3c 6e e0 29 bd 05 31 52 bd bb 9f ec bc
       0.027953837 -0.0414738 -0.05131628 -0.02888476
000030 3f 56 50 3d 76 0f 42 3c 48 1c 0a bd 73 01 a9 bc
       0.0508635 0.0118445065 -0.033718377 -0.020630574
000040 34 fb 3f bd ce 23 3d 3d 16 4d f0 3c e7 cd 6f bd
       -0.046870425 0.046176724 0.029333632 -0.058545973
000050 cc ee f3 bb e7 c9 68 3d 7c a6 67 3d 57 26 e6 3c
       -0.0074442383 0.056833174 0.056555256 0.028094454
000060 cc 8b bd 3b 76 9d 36 bd 2a 11 46 3d 68 e7 5d 3d
       0.0057844874 -0.04458376 0.048356213 0.054175764
000070 a2 5d a2 3c c7 3d 13 3d 06 fd 0f bd be 41 2c bd
       0.019820038 0.035947587 -0.03515341 -0.042054884
000080 67 49 5c bc 5d e7 a6 3c 7d 5d 6a bc c0 ce 4d bd
       -0.013445235 0.020373994 -0.014304516 -0.050246
000090 6c 11 64 3c cc f8 64 bd 22 77 1f 3d 4c 09 53 bd
       0.013920169 -0.055901334 0.038931973 -0.051522538
0000a0 f6 5d 38 bd 76 ca 49 bd e3 f9 33 bc af 5f 62 3d
       -0.045011483 -0.049265347 -0.010984871 0.055267032
0000b0 9c 3d 10 bd 40 6c 34 bd ee d4 6e 3d 70 74 42 3c
       -0.035215005 -0.044048548 0.058308534 0.011868581
0000c0 e2 e4 60 3d 4a 81 ba bc ec 8b 91 3c f7 e7 a2 3b
       0.05490578 -0.022766728 0.017766915 0.0049715
0000d0 c9 f8 1a bd 85 92 39 3c 8d 06 fb 3c 60 d9 40 bc
       -0.037834916 0.011326437 0.030642772 -0.011770576
0000e0 20 65 3a 3d 4e 54 2d bd a3 4d 59 bd 79 09 8e bc
       0.045506597 -0.042316727 -0.053052556 -0.017338501
0000f0 09 90 57 bd 42 02 2b 3d a1 7b 99 3c 85 eb c5 3b
       -0.052627597 0.0417502 0.018735709 0.006040039

resnet_block2.0.weight f4 [64, 64, 1, 1]
000000 6f 37 85 3d f5 fb ba bd 64 c8 e0 bd 65 c2 dc bc
       0.06504714 -0.09130088 -0.109757215 -0.026948163
000010 e0 1c aa bd 96 de ab 3d e0 4a bc bc 21 59 2f 3d
       -0.08306289 0.08392064 -0.022984922 0.04280961
000020 00 69 7c bd 68 af 70 3d 00 06 b0 3c 54 67 ec bd
       -0.061623573 0.05876103 0.021487236 -0.11543146
000030 b8 9e 38 bd 89 46 70 3d 40 92 da bb 5d 88 99 bd
       -0.04507324 0.058661018 -0.0066702664 -0.07496712
000040 2a e0 e7 3c b7 81 61 bd 31 fc d5 3d 65 93 f3 bd
       0.028305132 -0.055055346 0.10448492 -0.11893348
000050 1f 5a 94 bd 90 a6 d2 bd 2d 68 d9 3b ca 50 ec bc
       -0.07243752 -0.102856755 0.006634733 -0.028847117
000060 d0 4b 0f 3c 00 c3 e4 3a 03 22 df bd 7f 80 a4 3d
       0.008746102 0.0017453134 -0.10895159 0.08032321
000070 e9 a5 a4 3d b5 43 b0 3d 42 dc ab bc 61 f0 d1 bd
       0.08039457 0.08606664 -0.02097905 -0.10250927
000080 45 2b 83 3d 3d fa e2 3d 9d 10 98 bd 53 74 e1 bd
       0.064047374 0.110828854 -0.07425044 -0.11008515
000090 13 ff 82 3d 34 33 d7 bc ec b5 82 3d 87 c1 d3 bd
       0.06396308 -0.026269533 0.06382355 -0.10339647
0000a0 bd 45 9d 3c a0 e5 97 3d 34 e4 b6 bd 2d 01 de bd
       0.019198293 0.07416844 -0.08930245 -0.10840068
0000b0 54 c4 91 bd 52 a0 7b 3b 5d 8d f4 3d 59 36 bf bd
       -0.07117525 0.003839512 0.119410254 -0.09336538
0000c0 0b 64 47 bc d8 26 d6 ba 0a bf 1f bd e0 55 d2 bc
       -0.012169848 -0.0016338481 -0.03900055 -0.025675714
0000d0 50 7f c1 bd 37 3d a1 3d f3 1f cd 3d 43 16 ce bd
       -0.09448111 0.07873004 0.100158595 -0.1006284
0000e0 01 0f b6 bd 64 f3 cc 3d 48 68 a7 bd a6 26 7c bd
       -0.088895805 0.100073606 -0.08174187 -0.061560296
0000f0 d1 53 76 bb 22 4f c4 bd a5 f7 aa 3d 78 6f 78 bd
       -0.003758658 -0.09585406 0.08348016 -0.06065318
000100 95 8f e3 3d 7e dc eb bd 16 f7 51 3d a3 56 88 bc
       0.111113705 -0.11516665 0.05126103 -0.016642874
000110 fe f3 4b 3b ce cd df 3d 31 70 e8 3b 84 0c 45 3d
       0.0031120772 0.10927926 0.0070934524 0.04810764
000120 a5 d4 96 3d e1 94 96 3d eb 28 e7 3c 25 4b 89 3c
       0.073647775 0.07352615 0.028217753 0.016759465
000130 84 c7 06 bd c6 b8 65 bd 3a 25 a7 bd 44 9f bb bd
       -0.032905117 -0.056084417 -0.08161397 -0.09161237
000140 73 32 2d 3b 0e bf 07 3d 57 e6 a2 bd 51 9c 80 3d
       0.0026427775 0.03314119 -0.0795409 0.06279815
000150 28 c7 bf 3d aa 02 59 3d a2 11 d6 bd ed 3a 8a bc
       0.09364158 0.052981056 -0.10452582 -0.016873801
000160 62 84 c8 3d f8 c3 e9 bc 52 0c ad bd 97 ff db bd
       0.09790875 -0.028535828 -0.084496155 -0.10742109
000170 f0 f7 bc 3d 5b 1e df bd 2c d5 a9 bd 3e c5 f0 3b
       0.09226978 -0.10894462 -0.082926124 0.007347732
000180 4f 1e 48 3d 4b be 0c 3d 03 0c 71 bc b6 cb dd bd
       0.04885703 0.034361165 -0.0147123365 -0.108298704
000190 19 a1 7e 3d 04 0d da bd 71 c6 31 bd bb 9f 44 3d
       0.062165353 -0.10647014 -0.04340214 0.048003893
0001a0 e2 c3 18 3c 9b b3 e5 bd 94 35 89 3c 6c b9 4b 3b
       0.009324046 -0.11215898 0.01674918 0.0031085862
0001b0 d0 12 d6 bd a3 2d 28 bd 27 8a b0 bd 33 dc 5e bd
       -0.10452807 -0.041059148 -0.086201005 -0.054409217
0001c0 a1 47 50 3d 06 91 9d 3c a3 e2 77 bc 71 46 d9 bd
       0.05084956 0.019234192 -0.015129718 -0.10609139
0001d0 6e a2 eb 3d a7 21 73 3d 07 79 3d bd 70 77 d7 3d
       0.115055904 0.059358265 -0.046258 0.10520828
0001e0 64 9e d4 bd ea f3 0c bc a7 79 e6 bd 04 83 eb 3a
       -0.10381773 -0.0086030755 -0.11253672 0.0017968123
0001f0 2a 9c 5a bd 06 87 29 3d f6 60 f8 3d 99 c4 7a bc
       -0.053371586 0.041388534 0.12127869 -0.015305662
000200 da 5a ac bd 08 5b 87 3c 40 3e 0e 3c da 33 ab bd
       -0.08415766 0.0165229 0.008681834 -0.08359499
000210 b8 e0 89 3d 40 3c ae bc 40 15 b8 3c 18 06 7e bd
       0.06732315 -0.021268964 0.02247107 -0.06201753
000220 92 ff 84 bd 74 05 32 3d 04 d4 a2 bd d4 f6 00 3d
       -0.06494059 0.04346223 -0.07950595 0.031485394
000230 cc 0e 98 bd 52 ff ae bd 70 f4 ff 3d fc 3e b8 bd
       -0.07424697 -0.08544792 0.12497795 -0.08996388
000240 24 b6 16 bd 0e 99 e9 3d e8 90 9a bc 68 c7 f2 bd
       -0.036794797 0.11406146 -0.018867925 -0.1185444
000250 ea b0 8b 3d fc 11 47 bd f0 62 10 bc 38 2e 0d bd
       0.06820853 -0.048601136 -0.008812651 -0.034467906
000260 70 56 53 bd c0 47 20 bb 28 ee 9b bd ae c6 f2 3d
       -0.051596105 -0.0024456829 -0.07613784 0.118543014
000270 20 81 15 3d 32 01 9c bd b6 08 d4 bd a8 a9 a5 bc
       0.036500096 -0.076174155 -0.10353224 -0.0202225
000280 90 b5 77 bc 00 bf c8 3c 1e e6 ef bd c4 7a 78 3d
       -0.0151189715 0.024505138 -0.11713813 0.060663953
000290 80 97 85 3c 2c 40 3d bd c0 1d e0 3b b0 fd 03 bd
       0.016307592 -0.046203777 0.006839484 -0.032224357
0002a0 68 98 b0 bc 6c c7 df bd 00 8c f7 ba b4 9a 50 bd
       -0.021557048 -0.109267086 -0.0018886328 -0.050928786
0002b0 50 88 eb 3c 56 ae ab bd a0 79 ae bd ec c9 c6 bd
       0.028751522 -0.08382861 -0.08519292 -0.09706482
0002c0 f8 34 42 bd c0 b5 6a bd 28 45 9e 3d 90 f5 81 bc
       -0.047413796 -0.057302237 0.07728034 -0.015864164
0002d0 80 14 27 bd d8 19 9e 3c 9a 80 f4 3d c0 af 3f 3b
       -0.040791035 0.019299433 0.11938591 0.0029249042
0002e0 2c 80 0b 3d c6 b2 ca 3d 00 f0 51 3c 92 93 9b bd
       0.03405778 0.098973796 0.012813568 -0.07596506
0002f0 ac 2f 58 bd 20 93 e8 bc 4c 7d 8e bd c0 c4 9d bc
       -0.05277984 -0.028390467 -0.06957492 -0.019258857
000300 46 8a da 3d f8 c5 b2 bc 60 4c 49 3d 5d 77 c4 3d
       0.10670905 -0.021822914 0.049145103 0.09593079
000310 d2 be d7 bd e4 1b 95 3d ad 8b 02 bc 78 b1 c9 3d
       -0.10534443 0.0728071 -0.007967872 0.098483026
000320 08 01 f6 bc 96 28 34 bd 8a 62 e5 3d 73 74 80 bc
       -0.030029789 -0.04398402 0.112004355 -0.015680527
000330 fa 07 ba 3c 0d 06 2c bd 90 df 22 bd c4 20 b4 bd
       0.022708882 -0.041997958 -0.039763987 -0.08795312
000340 7d 1f d5 bd d9 6d 1e bd 4f e2 a4 3d 77 6b 9d 3d
       -0.104063965 -0.038678978 0.080509774 0.07686513
000350 6d 52 c1 3b 14 af bd bd 5b b8 9a bc 81 46 a3 bd
       0.0058997185 -0.09261909 -0.018886736 -0.07972432
000360 72 d8 fd bd 60 be db bd ee 68 d0 bd 7b 0f 9a bd
       -0.12394799 -0.107296705 -0.10176264 -0.07522484
000370 38 e9 8d 3d 23 8f be 3d 08 18 c9 bc a0 e4 84 bd
       0.069292486 0.09304645 -0.024547592 -0.06488919
000380 e9 db c1 bd d8 e4 78 bd ee ac 77 bd 22 9f 2f bc
       -0.09465773 -0.060765117 -0.060467653 -0.010719093
000390 9c 48 a2 3d c8 85 c7 3c 46 79 a8 3d 0c 5c 54 bd
       0.079240054 0.024355784 0.08226256 -0.051845595
0003a0 2e 35 e0 3d ec fa a3 bd b6 36 54 bd 7d 95 8c bd
       0.10947643 -0.08006844 -0.05180999 -0.0686445
0003b0 12 f1 57 3d 4d 11 c2 3d 38 3f df 3d 0f 39 0a 3d
       0.052720137 0.09475956 0.1090073 0.03374582
0003c0 ad 7f 10 3d b6 34 dc 3b 23 9f d6 3d 51 ac 9b bd
       0.03527801 0.006720151 0.10479572 -0.07601226
0003d0 80 ab 89 3d 8e 76 c6 3d a5 d4 61 bd ef 3a f0 3d
       0.06722164 0.09690581 -0.055134434 0.11729991
0003e0 97 53 bd bd fd 19 6c bd ec da f3 bc 58 ed ab 3d
       -0.09244459 -0.05764197 -0.029767476 0.08394879
0003f0 a0 be ef 3d 2d 00 ef 3c d4 61 00 bd 36 23 b3 bd
       0.11706281 0.029174889 -0.031343296 -0.0874695

resnet_block2.0.bias f4 [64]
000000 e0 0c 2b 3d da eb d2 3d 50 0b b6 3c b1 f1 cd bd
       0.041760325 0.10298891 0.022222191 -0.100558646
000010 e6 53 b9 3d 9c 69 aa bd 78 7a 7a bd 0f da c0 bd
       0.090492055 -0.08320925 -0.06115195 -0.094165914
000020 ba 5c 42 bc c7 62 d4 bd dd a3 be 3d f3 ed a5 3d
       -0.011862928 -0.10370403 0.09308598 0.08102026
000030 ba 66 38 3d c0 da a4 bd 29 38 9b bd 95 05 67 3d
       0.045019843 -0.08049536 -0.07579071 0.056401808
000040 cc f5 0c 3d e4 5c f0 3c 1b d5 2f 3d ee c2 ba bb
       0.034414098 0.029341169 0.042927843 -0.005699507
000050 99 dd 92 3d c8 47 e3 bd 83 50 93 bc 9c ef 0e bd
       0.07171173 -0.110976756 -0.017982727 -0.034896478
000060 bf b7 fd 3d 66 ca fa bd 30 0e cc 3d 43 35 6f 3d
       0.123885624 -0.12245636 0.099636436 0.058400404
000070 50 d4 0a bd 5d 15 e8 3c 8b 70 1a 3a d6 fe 4e 3d
       -0.033893883 0.0283305 0.0005891404 0.050536
000080 41 8e d9 bd ae 08 f0 3d 7c b1 08 3c ee c7 a6 3d
       -0.10622836 0.117204055 0.008343097 0.08143602
000090 de 24 f8 3d af f0 ed 3c fb 63 ed 3d 8a f9 85 bc
       0.12116407 0.029045431 0.115913354 -0.016354341
0000a0 ae ed d0 bd ea 75 00 bc 70 1d a2 3b 8c c8 04 bd
       -0.10201584 -0.007840613 0.004947357 -0.03241782
0000b0 18 7f da bd 4e c5 d4 bd 8b c3 78 3d 64 b8 ee bd
       -0.106687725 -0.103891954 0.06073336 -0.116562635
0000c0 ca 2e 16 3c 67 3b f8 bc 11 b5 e4 bd 56 d5 8c bd
       0.009166429 -0.030301763 -0.11167348 -0.06876628
0000d0 61 fc e3 bd 7c 16 68 bd 86 b9 28 bc 91 59 ab 3d
       -0.11132122 -0.056662068 -0.0102981385 0.08366693
0000e0 8f a0 cd 3c f4 69 2e bd e2 fc 20 3d c0 6c 10 bd
       0.025100974 -0.042581514 0.039303668 -0.035259962
0000f0 22 2b 3a 3d e3 97 fa 3c 18 d6 ac bc c0 92 5e 3c
       0.04545129 0.030590003 -0.021098182 0.013584793

resnet_block2.2.weight f4 [64, 64, 5, 5]
000000 d4 b1 43 bb a0 f9 9e 3c 7c 89 74 3c 11 c9 28 bc
       -0.0029860632 0.01940614 0.014925357 -0.010301844
000010 88 c3 b8 3c 7b 65 86 3c 63 a8 39 3b 43 03 0d bc
       0.022554174 0.016405812 0.0028329126 -0.008606735
000020 1b 26 b2 3c 21 0b c7 3c 17 89 82 3c c2 5b 88 bc
       0.021746686 0.024297299 0.01593451 -0.016645316
000030 40 36 f6 3b e9 b6 c7 bc 43 57 69 3c 3a 12 a5 3c
       0.0075137913 -0.02437921 0.014241996 0.020150293
000040 86 74 26 3c 2e 86 1d bc 17 cd ca bb d2 c8 b9 3c
       0.010159617 -0.00961451 -0.0061889994 0.022678766
000050 23 a1 91 bb 81 1d 92 3c a2 72 01 bc 6c 22 6f bc
       -0.004444258 0.017836334 -0.007900866 -0.014595609
000060 91 35 c4 bb 33 50 7e 3c 8f b0 66 3c 59 f2 de 3a
       -0.005987831 0.015522051 0.014080181 0.0017009481
000070 ef 35 fa ba 3a d5 82 3c 64 37 88 3c 03 42 c9 bc
       -0.001908956 0.015970815 0.016627975 -0.02456761
000080 01 07 ae bc 1a 0c 00 bb 3b 2c aa 3c 95 4b 16 3c
       -0.021243574 -0.0019538463 0.020773044 0.009173294
000090 d8 28 cf 3a e0 48 51 bc 12 c3 87 3c 7e d4 d6 bb
       0.0015805019 -0.012773722 0.016572509 -0.0065560928
0000a0 2c fb 75 3c 83 4c 4c bc f6 3a 56 3c ce ba c4 3c
       0.015013497 -0.012469414 0.013075581 0.024014857
0000b0 76 98 8e ba ef cc 3a 3b 05 90 4f 3c 25 76 c2 bc
       -0.0010879177 0.0028503498 0.012668614 -0.023737976
0000c0 4d 24 6a 3c 0f 4c 7d bc 0b 65 b1 bc 30 1f 86 3a
       0.014290881 -0.015460028 -0.021654626 0.0010232683
0000d0 36 90 36 3c d0 b6 75 3b 40 8f 17 3b 9a 90 a4 bc
       0.011142781 0.0037492998 0.0023126155 -0.020088483
0000e0 f8 aa f3 bb 80 8b 30 3b 8f 38 84 3c 2b cb a2 3c
       -0.0074361525 0.0026938617 0.01614025 0.019872269
0000f0 0e 7d 89 bc 3d e4 9b 3c a8 09 b9 bb 92 d0 44 3c
       -0.016783264 0.01902973 -0.005646903 0.012012618
000100 c1 12 96 3c f5 a8 a4 bc f7 ef 24 bc 90 31 92 bc
       0.01831949 -0.020100096 -0.010066978 -0.017845899
000110 43 3c c2 3c 7b a8 b3 3c 40 ca 35 3a 90 15 16 bb
       0.023710376 0.021930924 0.00069347396 -0.0022901036
000120 ad 9e 77 bc 00 54 8d 37 fa bf 6b bc ef 95 3b 3c
       -0.015113515 1.6847625e-05 -0.0143890325 0.011449321
000130 4d e3 b9 3c 66 77 c8 3b 96 26 62 3c 31 d9 41 bc
       0.022691393 0.006117749 0.013803145 -0.011831568
000140 2f e6 2c bc b9 e0 ad 3c 08 ef 26 bc 36 f1 51 bc
       -0.010552927 0.02122532 -0.010188825 -0.012813857
000150 e2 55 c5 bc 2c f2 82 bc 7a a1 0e bc 7d 26 65 3c
       -0.024088804 -0.015984617 -0.008705491 0.013986227
000160 cb 3d 1a 3c 9c bf b6 3c dd d1 b3 bc 10 8e 6e 3c
       0.009414147 0.022308163 -0.021950657 0.0145602375
000170 54 bb 62 bc d6 ec 89 bc 60 f2 0b bc 60 00 93 3b
       -0.013838608 -0.016836565 -0.008541673 0.0044861287
000180 62 fe c8 bc e6 9b 4d bc 6a 6f 1e 3c 9d ae 6c 3c
       -0.024535362 -0.012549376 0.009670118 0.014445928
000190 e9 4f b8 bc fa b5 ca 3c 3a de b7 bb ca 15 c0 3c
       -0.022499042 0.024744976 -0.0056112083 0.02344789
0001a0 36 96 bf bc ad e8 bf 3c d7 a5 53 3c 38 cd 99 3c
       -0.023387056 0.023426378 0.012917957 0.018774614
0001b0 3d 85 97 bc 5e 2c ea bb 60 df b6 3b 1d ba 15 3c
       -0.01849615 -0.0071464023 0.0055808276 0.009138611
0001c0 4f b6 31 3b 34 1b 52 3c 2b 36 ef 3b d4 b9 63 3c
       0.002711672 0.012823869 0.0073001585 0.013899285
0001d0 83 7a c3 bc 51 f1 c1 bc 12 f3 8a bc 88 26 c8 3c
       -0.02386213 -0.023674639 -0.016961608 0.024432436
0001e0 cf ad 77 bc 2c 0a 40 ba 2b 10 b1 3c d3 a4 90 3c
       -0.015117123 -0.00073257345 0.021614155 0.01765672
0001f0 8e 4c b0 3a 82 7a 18 3c 19 8a 98 3c 4c cd d2 3b
       0.001345055 0.009306552 0.018620538 0.0064331647
000200 80 f1 8b 3a d4 fd a2 3b f2 e6 08 3c 58 f2 25 bb
       0.0010676831 0.0049741063 0.008355843 -0.002532145
000210 50 53 4f bc 12 25 6f 3c 6e 05 0c 3c cc 38 b4 bb
       -0.012654141 0.014596241 0.008546216 -0.005499935
000220 60 6d 5f ba 90 a9 66 bb 60 2f a7 3a c9 e2 8f 3c
       -0.0008523073 -0.0035196282 0.0012755208 0.017564194
000230 c0 0b 6a 3b f4 35 99 bb b4 19 a1 bb 00 01 37 3b
       0.003571257 -0.004675621 -0.004916394 0.002792418
000240 e8 40 35 3b b0 bc bb ba a8 89 f3 bb aa 85 14 bc
       0.0027657095 -0.0014323201 -0.0074321814 -0.009065071
000250 fd 9d ab 3c 6d 04 7c bc 63 dd 29 bc 7a 8f 3b 3c
       0.020949358 -0.015381915 -0.010367724 0.011447782
000260 d2 39 54 3c 5a 38 6a 3c ca d5 c0 bc 98 1b a5 3b
       0.012953239 0.014295662 -0.023539443 0.00503869
000270 6c 2a fb 3b 63 2f ca 3c d3 1a 80 3c e6 d5 08 bc
       0.007664969 0.024680799 0.01563779 -0.008351779
000280 eb 74 a7 3c 73 1b c6 bc 92 55 76 3c 2b 97 a9 bc
       0.020441493 -0.02418301 0.01503505 -0.020701965
000290 52 8b 76 3c 43 55 37 bc 98 65 00 3b b9 d6 93 3c
       0.015047865 -0.011189762 0.0019591805 0.018046724
0002a0 77 77 bb 3c 08 a5 ab 3b 47 b1 6f bc 1a e1 3d 3c
       0.022884114 0.005238179 -0.014629669 0.011589313
0002b0 83 39 96 3c de eb 35 3c 07 c8 1d bc 2f 84 4d 3c
       0.01833797 0.011103598 -0.00963021 0.012543722
0002c0 e9 5f 6e bc 99 5c 21 3c 9d 0e 81 bc 61 ac 8e 3c
       -0.014549234 0.009848737 -0.015754038 0.017416181
0002d0 79 d8 e1 bb 6e 39 07 3c e7 51 1c 3c 44 86 75 bb
       -0.0068922606 0.008253438 0.009541011 -0.0037464062
0002e0 a3 53 13 3c da aa bc bc 52 d4 95 bc 54 85 92 3c
       0.0089921085 -0.023030687 -0.018289719 0.017885841
0002f0 fe db 29 ba 91 96 b3 bc 83 e4 7d 3a ec 4f bd bc
       -0.000647962 -0.021922382 0.0009685235 -0.023109399
000300 b9 03 68 bb 7b 80 8b bb 07 35 8d 3c f2 1e 2b bb
       -0.003540261 -0.0042572594 0.0172372 -0.0026110974
000310 7b 26 a0 3c d1 eb 1c 3c 26 99 41 3c a6 84 6c 3c
       0.019549599 0.009577707 0.011816299 0.014435923
000320 ad 7a 9b 3c 32 ab 1d bc 00 5c 8e 3b 6d 79 b2 3c
       0.018979395 -0.009623336 0.0043444633 0.021786416
000330 74 28 b3 bc 4d 6f 79 3c 9e 2b b6 bc 11 2f a7 bc
       -0.021869875 0.01522429 -0.022237595 -0.020408185
000340 9b 86 59 3b ce 55 8f bc 68 45 22 3b 4b ca 8f 3c
       0.0033191803 -0.01749697 0.0024760608 0.017552515
000350 2a 2a 46 3c f5 22 f2 3b 6a a1 c5 3a c8 45 91 bb
       0.012095014 0.007389421 0.0015078012 -0.0044333674
000360 5f d3 73 3c 63 44 c7 3c 48 d8 bc bc 72 d5 b1 3c
       0.014881938 0.024324602 -0.02305235 0.021708224
000370 22 8e 07 3c 6f fa 28 ba 36 c0 01 3a 53 92 6d bc
       0.008273633 -0.0006446009 0.0004949601 -0.014500218
000380 02 06 f6 bb be c3 9d bb 41 9d c0 3c c5 e1 bf bb
       -0.0075080404 -0.004814594 0.023512485 -0.0058557712
000390 bd e7 b7 bc 23 da 37 bc bb 8f 1d bc 6c 3e 8a bc
       -0.022449369 -0.011221441 -0.009616788 -0.016875468
0003a0 42 8c 01 bc 83 58 b8 3b cc ca db bb 63 36 69 3c
       -0.007906975 0.005625786 -0.006707525 0.014234158
0003b0 40 22 82 bc 65 98 9a bc ae 29 03 3c f8 1f 4c bb
       -0.015885472 -0.018871496 0.008005543 -0.0031146985
0003c0 3a 23 c2 3c b0 6f 43 bc 28 cf c8 3c cf 85 7b bc
       0.023698438 -0.011928484 0.024512842 -0.015351727
0003d0 4b 62 6a bc 02 76 c9 bc 2d 4f 56 bc e5 0b ae 3c
       -0.014305661 -0.024592403 -0.0130804 0.021245906
0003e0 a1 74 c3 3c 4a dc 96 3b ef 2b 13 3c 4a a8 bd 3c
       0.023859324 0.004603897 0.008982643 0.023151536
0003f0 79 e3 8e 3c b5 f2 bd bc db 6a a0 bc d1 a7 5e bb
       0.017442452 -0.02318702 -0.019582203 -0.0033974538
